…
    <!--?lit$73414376$--><i class="material-icons"><!--?lit$73414376$-->cancel</i>
    <span><slot></slot></span>
  </button></template></mwc-icon-button><!--?--></template></colab-output-info></div>
          <div class="output-iframe-container">
            <div class="output-iframe-sizer"> <div><div><colab-static-output-renderer tabindex="0" role="group"><div><div class="stream output_text"><pre>Model: "sequential"
_________________________________________________________________
 Layer (type)                Output Shape              Param #   
=================================================================
 conv2d (Conv2D)             (None, 26, 26, 32)        320       
                                                                 
 max_pooling2d (MaxPooling2  (None, 13, 13, 32)        0         
 D)                                                              
                                                                 
 conv2d_1 (Conv2D)           (None, 13, 13, 64)        18496     
                                                                 
 max_pooling2d_1 (MaxPoolin  (None, 6, 6, 64)          0         
 g2D)                                                            
                                                                 
 conv2d_2 (Conv2D)           (None, 4, 4, 128)         73856     
                                                                 
 max_pooling2d_2 (MaxPoolin  (None, 2, 2, 128)         0         
 g2D)                                                            
                                                                 
 flatten (Flatten)           (None, 512)               0         
                                                                 
 dense (Dense)               (None, 64)                32832     
                                                                 
 dense_1 (Dense)             (None, 128)               8320      
                                                                 
 dense_2 (Dense)             (None, 26)                3354      
                                                                 
=================================================================
Total params: 137178 (535.85 KB)
Trainable params: 137178 (535.85 KB)
Non-trainable params: 0 (0.00 Byte)
_________________________________________________________________
</pre></div><div class="stream output_text"><pre>/opt/conda/lib/python3.10/site-packages/keras/src/engine/training.py:3103: UserWarning: You are saving your model as an HDF5 file via `model.save()`. This file format is considered legacy. We recommend using instead the native Keras format, e.g. `model.save('my_model.keras')`.
…
.colorpicker-body .saturation-wrap { overflow: hidden; height: 150px; position: relative; min-width: 220px; flex: 1 1 0%; }

.colorpicker-body .saturation-box { height: 150px; position: absolute; }

.colorpicker-body .saturation-selection { width: 9px; height: 9px; margin: -5px 0px 0px -5px; border: 1px solid rgb(255, 255, 255); border-radius: 100%; box-shadow: rgba(0, 0, 0, 0.8) 0px 0px 2px; position: absolute; }

.colorpicker-body .strip { width: 25px; height: 150px; }

.colorpicker-body .standalone-strip { width: 25px; height: 122px; }

.colorpicker-body .hue-strip { position: relative; margin-left: 8px; cursor: grab; background: linear-gradient(red 0px, rgb(255, 255, 0) 17%, rgb(0, 255, 0) 33%, rgb(0, 255, 255) 50%, rgb(0, 0, 255) 67%, rgb(255, 0, 255) 83%, red); }

.colorpicker-body .opacity-strip { position: relative; margin-left: 8px; cursor: grab; background: url("data:image/png;base64,…") 0% 0% / 9px 9px; image-rendering: pixelated; }

.colorpicker-body .strip.grabbing { cursor: grabbing; }

.colorpicker-body .slider { position: absolute; top: 0px; left: -2px; width: calc(100% + 4px); height: 4px; box-sizing: border-box; border: 1px solid rgba(255, 255, 255, 0.71); box-shadow: rgba(0, 0, 0, 0.85) 0px 0px 1px; }
…
